vulkanfft/src/main/assets/sum_model_16bit.tflite (tflite, 2148 bytes, 3 tensors)

arith.constant f2 [8, 2]
0	0xb7b8	-0.4824
1	0xacd5	-0.0755
2	0x36a9	0.4163
3	0x3907	0.6284
4	0x2fea	0.12366
5	0x2dab	0.08856
6	0xb87a	-0.5596
7	0xbac4	-0.8457
8	0x3296	0.2058
9	0x34fb	0.3113
10	0x38aa	0.583
11	0x2dd6	0.0912
12	0xb60c	-0.378
13	0xb457	-0.2712
14	0x383c	0.5293
15	0x3614	0.38

arith.constant1 f2 [8]
0	0xab00	-0.0547
1	0xa9e2	-0.04596
2	0xac0e	-0.06335
3	0x31ef	0.1854
4	0xb08e	-0.1423
5	0x2bbb	0.0604
6	0xacd5	-0.0755
7	0x29d4	0.04553

arith.constant3 f2 [1, 8]
0	0xb702	-0.438
1	0x3a02	0.751
2	0xb74c	-0.456
3	0xbb39	-0.903
4	0x3b7e	0.9365
5	0x35cd	0.3625
6	0xb9ff	-0.7495
7	0x3922	0.6416
